save_model.ckpt (torch, 18771 bytes, 11 tensors)

conv1.weight f4 [20, 1, 4]
000000 0c 16 17 3d 1b 03 b4 3d df 92 39 be 0b b2 03 be
       0.03688626 0.08789655 -0.18122433 -0.12860887
000010 d1 d3 98 3e ad 00 18 be 4a 61 8a be 14 46 07 bf
       0.29849103 -0.14844008 -0.2702735 -0.52841306
000020 13 7d 08 3e ce 2e 84 3e f4 35 44 3e ec e4 93 3d
       0.13328962 0.2581696 0.19161206 0.07221398
000030 98 2a 43 3e 4a 3f 32 be 6d a7 cc be 59 5c b7 bd
       0.19059217 -0.17406955 -0.39971486 -0.08953161
000040 5c ae d8 3d 0c a3 ee 3e 9a ad 62 3d 13 77 40 bd
       0.105801314 0.4660877 0.05534134 -0.046988558
000050 3f 18 74 be 50 84 46 be 99 e5 32 bd a3 df 24 be
       -0.23837374 -0.1938641 -0.043675993 -0.16100936
000060 a2 ee 2c bf 24 77 06 be bb 76 4a 3d 7d 08 1c bf
       -0.67551625 -0.13131386 0.049429636 -0.6095045
000070 44 65 d6 be d0 0e f5 3c e0 1a 8e bb 26 ea 0c be
       -0.41874135 0.02991429 -0.0043367 -0.13761196
000080 49 b6 8b bd e4 e4 03 be 66 81 a0 be d1 1a 3a be
       -0.068218775 -0.12880284 -0.31348723 -0.18174292
000090 07 3f 31 3e 01 ad d7 3e c6 87 7a be dc e2 41 3e
       0.173092 0.4212418 -0.24465856 0.18934196
0000a0 83 d2 8a 3e 0b c2 79 3e ee 6f 80 3e e7 61 0e 3e
       0.27113733 0.24390428 0.25085396 0.13904534
0000b0 34 4d c5 bd 58 bc 75 be 02 7e 52 bf e8 7d 49 be
       -0.09633866 -0.23997629 -0.8222352 -0.19676936
0000c0 25 f9 cc 3d f5 ac 1c 3e 49 40 0a 3e e3 58 8b bc
       0.10008458 0.15300353 0.13501085 -0.017010158
0000d0 62 0c c3 bc 52 19 b4 bc 78 22 83 3e 50 0f 05 bf
       -0.023809616 -0.02198473 0.25612235 -0.5197649
0000e0 2a 6e 20 3e 3e 87 c8 bc 54 34 2f 3e 0b 1c 90 be
       0.15667024 -0.024478551 0.17109805 -0.28146395
0000f0 26 30 f3 ba 28 99 b9 bd c7 5f 57 3e 38 56 85 be
       -0.0018553778 -0.09062415 0.2103263 -0.26042342
000100 2e d0 58 be d3 1b 9c bc 1f 0e 9d 3e 87 19 85 be
       -0.21173164 -0.019056236 0.30674836 -0.25996038
000110 5c 41 08 3e 82 e4 8d be a4 12 f1 bd 7d 70 61 be
       0.13306183 -0.277134 -0.117711335 -0.22015567
000120 18 fd d7 be 3c dd b1 3c ac 3b af bd ae 61 80 be
       -0.42185283 0.021711938 -0.085563034 -0.25074524
000130 a3 dd ff bd 26 b8 69 bc 30 60 a3 3c 9d a4 b0 be
       -0.12493446 -0.014265096 0.019943327 -0.3450059

conv1.bias f4 [20]
000000 55 1c 64 3e 4c f1 80 be 87 93 5e 3d a4 28 42 be
       0.22276433 -0.25184095 0.05433991 -0.18960816
000010 df 74 48 3d 54 32 3c be c5 96 89 be c3 49 b4 be
       0.048939582 -0.18378574 -0.2687284 -0.35212526
000020 fb fc 29 bf 04 c0 d1 be ff 53 09 3e 43 79 fb 3c
       -0.6640164 -0.4096681 0.13410948 0.03069747
000030 92 72 dc be d8 c6 04 bf ce b4 b1 bc 72 12 f3 bd
       -0.4305616 -0.5186591 -0.02169266 -0.118687525
000040 3c 29 1f bf d4 b5 00 3e ae 21 98 be 02 7e e2 be
       -0.62172294 0.12569362 -0.29713196 -0.4423676

conv2.weight f4 [20, 20, 4]
000000 6b 03 49 be a5 e6 b6 be 99 0b af be 59 02 b7 be
       -0.1963021 -0.35722843 -0.34188536 -0.3574398
000010 0f e9 8a be c9 e5 c6 3e de 04 8f be 5f 2f 6e be
       -0.27130935 0.38847187 -0.279334 -0.23260258
000020 c7 fe 49 be a2 87 be be b8 c6 bc be b4 2a c7 be
       -0.19726096 -0.37212855 -0.3687036 -0.38899767
000030 db d8 9b be 32 4c 65 be 16 ba 51 be 36 f8 b4 be
       -0.30438885 -0.22392347 -0.20481142 -0.3534562
000040 10 ec 60 be 45 14 85 be dd fd bd be 41 f9 c3 be
       -0.2196505 -0.25992027 -0.37107745 -0.38276103
000050 b0 62 ba be 90 50 92 be d9 c2 a9 be 22 60 92 be
       -0.36403418 -0.2857709 -0.3315647 -0.2858897
000060 66 68 4a be 42 dd 42 be 72 3f a2 be e9 2e b5 be
       -0.19766387 -0.19029716 -0.3168903 -0.35387352
000070 3c 97 ac be 2c 72 85 be 35 0b b9 be 0b cf 8c be
       -0.33709133 -0.2606367 -0.36141363 -0.2750171
000080 92 43 8f be e0 d7 bf be a5 a2 7b 3e 45 e0 9a be
       -0.2798124 -0.37469387 0.24573763 -0.3024923
000090 d0 f6 85 be 11 12 58 3e b3 5b c9 be 71 03 9e be
       -0.26164865 0.21100642 -0.39327773 -0.30862
0000a0 c2 39 b6 be fc 4b 6e be 5a 6f 66 be af 4b 88 be
       -0.3559094 -0.23271173 -0.22503415 -0.26620242
0000b0 90 d4 81 be 18 ff 92 be 5c 18 c4 be c8 60 95 be
       -0.25357485 -0.28710246 -0.38299835 -0.291754
0000c0 32 8e 82 3e c1 18 cc 3e 22 e6 b5 be 6a 8c cc be
       0.2549911 0.39862636 -0.3552714 -0.39950877
0000d0 75 d5 a1 be 82 dd a8 3e 09 48 a8 be 1d 9d c2 be
       -0.31608167 0.32981497 -0.32867458 -0.38010493
0000e0 03 8b 4e be 20 59 90 be 57 a7 61 be a0 a6 5b be
       -0.20170216 -0.28192997 -0.22036491 -0.21450281
0000f0 d0 0a c8 be 8a 73 b2 be bd 03 9d be cb 66 80 be
       -0.3907075 -0.34853774 -0.30666915 -0.25078425
000100 bc 68 7e be dc 6d 90 be 9c 4b b1 be 95 44 c4 be
       -0.2484464 -0.28208816 -0.34627998 -0.38333574
000110 e6 d5 75 be 68 31 c6 be 62 e3 ad be 50 54 bd be
       -0.24007377 -0.3870957 -0.33962542 -0.36978388
000120 44 b9 6f be dd db c4 be 51 21 5c be 79 49 ab be
       -0.23410517 -0.38448992 -0.21497084 -0.33454493
000130 a4 50 ab 3e a5 d5 85 be d4 d4 65 be 63 e8 8b be
       0.3345996 -0.2613956 -0.22444469 -0.27325734
000140 82 ac 24 be b4 90 69 be 15 c2 08 be e0 67 56 be
       -0.16081432 -0.22809106 -0.13355286 -0.20938063
000150 d8 37 21 be e1 61 43 be b0 8f 39 be 20 90 f9 bd
       -0.15743959 -0.19080307 -0.18121219 -0.12185693
000160 6a ef 61 be dd 91 65 be 93 91 0d be b1 31 21 be
       -0.22063985 -0.22418924 -0.13825063 -0.15741612
000170 84 dc 77 be 35 c0 e2 bd 9a 94 1e bd e7 48 97 bd
       -0.24205214 -0.11071817 -0.038715936 -0.07386952
000180 2a fd 9c bd 7c b6 aa bc 95 04 0c be 20 58 54 bd
       -0.07665475 -0.020838968 -0.13673623 -0.051841855
000190 1f ab 40 be 3a eb 15 3d b3 02 21 be f5 bd 73 3d
       -0.18815278 0.036601283 -0.15723686 0.05950733
0001a0 9a 56 e6 bd dd 89 b4 bd 40 4e ad bd 29 f6 8b bc
       -0.11246987 -0.08815358 -0.08462191 -0.017085152
0001b0 29 d0 12 be c0 7d 45 be fa cb 9b 3c 83 90 22 3c
       -0.1433722 -0.19286251 0.019018162 0.00992215
0001c0 b9 8e 98 3c 75 5b 0f be 13 ca 6b be 8c 4a 27 be
       0.018622743 -0.13999732 -0.23026304 -0.16337031
0001d0 c4 47 ba bd 5e 2e 09 be 16 6f 4e bd ef 18 d9 bd
       -0.090957195 -0.13396594 -0.05039891 -0.10600459
0001e0 1a 3a 0f be 73 26 af bd 54 31 3c bc 1b 50 6e be
       -0.13987008 -0.085522555 -0.01148637 -0.23272745
0001f0 0a 19 7a be a8 9a 93 be 3d 9a 99 be 86 94 0c be
       -0.24423614 -0.2882893 -0.30000487 -0.13728532
000200 9d 42 4c be 74 c4 46 bd fb d2 46 be 97 4c 0a be
       -0.19947286 -0.048527196 -0.1941642 -0.13505779
000210 75 96 54 be 46 38 9e be 1e 36 f9 bd a6 26 81 be
       -0.2076052 -0.30902308 -0.12168525 -0.252248
000220 f4 71 ab bd a0 35 2b be 44 63 65 bc 97 57 01 be
       -0.08371344 -0.16719675 -0.014000718 -0.12631069
000230 ac 84 e6 bd 7e 7c 89 bd 76 ab 42 bd 13 9c 27 be
       -0.11255774 -0.06713198 -0.0475268 -0.16368131
000240 3a c4 6c bd 53 cf 19 be f9 04 d1 bc 25 cd a2 bd
       -0.057804324 -0.15020494 -0.025515066 -0.079492845
000250 c3 f2 f3 bd d0 97 d4 bd 3b 82 d8 bd 25 77 64 be
       -0.119115375 -0.103805184 -0.105717145 -0.22311075
000260 37 98 5f bc f5 e1 15 bd fd 72 81 3c 84 d7 a1 bd
       -0.013647131 -0.036592443 0.015801901 -0.079024345
000270 87 81 c9 bd 57 c2 ac bd d3 f0 e8 bd 91 ba 49 bb
       -0.098391585 -0.08435505 -0.113740586 -0.0030781368
000280 ce 26 c0 bd c0 88 82 bd b3 8e 0f 3d 0e 55 50 bd
       -0.093824014 -0.06373739 0.035048198 -0.050862364
000290 f6 88 d3 3b 80 79 a6 bd ff 66 75 bd 4b 11 47 bd
       0.006455536 -0.08128643 -0.059912678 -0.048600476
0002a0 ad d6 00 be 33 c2 aa bd 2d ce ac bd 47 ed 0d be
       -0.12581892 -0.08337822 -0.084377624 -0.13860045
0002b0 4f 0c 8e bd 71 22 11 be 9c a1 8b 3b 91 7a 88 bc
       -0.069359414 -0.14173295 0.0042612087 -0.016660007
0002c0 17 ae 34 be 0d 27 20 be 92 ef 74 bd 0f 96 41 be
       -0.17644535 -0.15639897 -0.059798785 -0.18904899
0002d0 88 6b 9e 3c ab 6d d8 3c c0 49 11 bc 38 ab f1 bd
       0.019338384 0.026419481 -0.008867681 -0.118002355
0002e0 34 5c ca bc 3f 34 96 3c ec 73 b8 bd 01 9a 30 bd
       -0.024702169 0.01833546 -0.09006485 -0.04311562
0002f0 53 30 3d bd e5 b1 cc 3d c3 d8 12 be a8 79 cf 3b
       -0.046188664 0.09994868 -0.143405 0.006331641
000300 0d 31 8f bd 4b 98 ae bc 19 b8 79 be 26 a8 83 be
       -0.069917776 -0.021312853 -0.24386634 -0.25714225
000310 29 a0 1a 3c db 7d 2d bd 45 46 3d bc fd 20 2c be
       0.009437599 -0.042356353 -0.011552398 -0.16809459
000320 9c 2d 04 be d7 ac 21 be dd 7c d1 bd 78 a3 41 be
       -0.12908024 -0.1578859 -0.10228894 -0.18910015
000330 f3 3b d2 bd 9b b2 cf 3a 8f 41 e6 bc 52 75 ab 3d
       -0.10265341 0.0015846075 -0.028107433 0.083719864
000340 22 69 47 be 33 6d 75 be 3c 1d c5 bd 5d c8 a7 bd
       -0.19473699 -0.23967437 -0.09624717 -0.08192513
000350 00 50 67 bd 1a 37 25 3d a1 f2 43 bc 0b 2b f0 bd
       -0.05647278 0.040335752 -0.011959703 -0.1172696
000360 cb 39 a7 bd 12 2a 13 3d e2 23 f2 bc 1e a3 0e be
       -0.0816532 0.035928793 -0.029558126 -0.13929412
000370 8c 71 11 3c 5d 73 8c bd 6a 10 cb bd 5e 27 29 be
       0.008877169 -0.06857941 -0.0991524 -0.16518924
000380 92 5d 97 bd 10 55 e4 3c 3e 2d 53 be 1d e4 05 bd
       -0.07390894 0.027872592 -0.20622727 -0.03268825
000390 80 da 31 bd cf 3b 14 be 71 00 cf bd 7c b0 44 bd
       -0.04342127 -0.1447594 -0.10107506 -0.04801987
0003a0 63 cc 01 be de 36 22 bd 5a de c2 bd f5 69 8f bd
       -0.12675624 -0.039603107 -0.095150664 -0.070026316
0003b0 ad 61 39 be 72 96 09 be 6c 37 15 be a9 6c 91 be
       -0.18103667 -0.13436297 -0.14571923 -0.28403214
0003c0 e8 fe 17 be a8 54 44 be 1a aa ad bd 1b 20 a8 bd
       -0.14843333 -0.19172919 -0.0847971 -0.08209249
0003d0 26 ce 70 bc fb e3 63 be 6c 76 8c bd a1 c1 28 be
       -0.014697587 -0.22254936 -0.06858525 -0.16480114
0003e0 63 59 d8 bb 46 bb 44 bc f6 7d 05 bd 49 cd 51 be
       -0.0066024526 -0.01200754 -0.03259083 -0.20488466
0003f0 81 e1 50 be a9 f7 5a be 06 46 e8 bd e7 e4 73 be
       -0.20398523 -0.21383537 -0.11341481 -0.23817788

conv2.bias f4 [20]
000000 d2 04 8b be f4 b7 5c be e9 2f 80 3d d7 29 c8 bd
       -0.27152115 -0.21554548 0.06259138 -0.09773605
000010 eb b6 84 be f3 cc a2 3d 8c 61 27 3b 0e 27 c0 3d
       -0.25920805 0.07949247 0.002554032 0.09382449
000020 50 0e a9 3d 13 ab 35 3e a4 62 66 be 95 96 f4 3c
       0.08254683 0.17741041 -0.22498566 0.02985696
000030 57 c9 b1 3d 61 42 0f 3f 61 9e cd 39 24 f7 c2 bd
       0.08680981 0.5596066 0.00039218648 -0.095197946
000040 09 f9 79 3e 99 52 26 be b7 d1 b8 3d 95 70 a8 3d
       0.24411406 -0.16242446 0.09024375 0.08224598

fc1.weight f4 [25, 20]
000000 30 c3 81 3e 43 3e c2 3d 15 be bd bc f5 30 e6 3d
       0.2534423 0.09484532 -0.023161927 0.112398066
000010 a9 4d 02 3f e8 52 b2 bd cf 90 17 be e0 88 a1 bc
       0.5089975 -0.08707219 -0.14801334 -0.019718587
000020 1f f7 0e be 70 b8 14 be f1 da cb 3d b5 b5 78 bd
       -0.13961457 -0.14523482 0.09953869 -0.060720164
000030 ae 51 cf 3d 4e 1d 97 bf 52 9d 35 be 7e ff 60 be
       0.10123001 -1.1805818 -0.17735794 -0.21972463
000040 30 cf 13 be 49 02 9a be 59 e8 e0 3c 62 ed 8d be
       -0.14434505 -0.30079868 0.027454542 -0.2772017
000050 7b a5 b5 bd 6c 50 e0 bd 37 87 54 be 78 79 a1 be
       -0.088694535 -0.10952839 -0.20754705 -0.31537986
000060 81 8b 52 be 89 51 94 be bb ab 0a bd 4b 2f 85 3e
       -0.20561029 -0.28968456 -0.03385518 0.26012644
000070 f1 66 31 be 4f 59 00 bf bf b5 d4 3e 7f dc c7 be
       -0.17324425 -0.50136274 0.4154491 -0.39035413
000080 73 48 f9 be 90 d1 1a be 93 a6 03 bf 7f 57 55 be
       -0.48688087 -0.15119004 -0.5142605 -0.20834158
000090 d2 ea aa bd 4d 23 ad be 08 5f 7c be a8 8e 83 be
       -0.0834557 -0.33815995 -0.24645627 -0.25694776
0000a0 f0 4a 7d be 97 91 8b be 10 2e b6 bd f4 b9 a8 be
       -0.24735618 -0.27259514 -0.088955045 -0.3295437
0000b0 69 76 29 be 59 1b 3d 3d b9 30 3a bd a6 b3 5a be
       -0.16549076 0.04616866 -0.04545662 -0.21357593
0000c0 bb 32 94 be 50 b9 f8 be 26 48 0d bd 08 71 3f be
       -0.28944954 -0.48578882 -0.034492634 -0.18695462
0000d0 1d 77 9b be 2c 83 a8 bc 43 55 96 be 30 ba 9d be
       -0.30364314 -0.02057036 -0.29361925 -0.30806112
0000e0 99 89 c7 be dc c7 05 be b0 73 5d be 4a ee bc be
       -0.38972166 -0.13064522 -0.21626163 -0.3690055
0000f0 70 4a 4b 3e 39 a2 ac bb b6 32 8a be b9 32 aa bb
       0.19852614 -0.005268362 -0.26991814 -0.005194035
000100 56 19 8a 3e a0 d8 6e bd 9f 27 15 3e 28 c4 20 be
       0.26972455 -0.05831206 0.14565895 -0.15699828
000110 ab 37 e3 b9 9c 0b 3f be bb 7f 12 3d 6d 90 ab bd
       -0.0004333829 -0.18656772 0.035766345 -0.083771564
000120 1f 77 da 3d b8 45 49 3f 0c 84 19 bd b2 5c 30 be
       0.10667252 0.7862201 -0.037479445 -0.1722286
000130 6b 44 19 3e 73 b9 42 be cc a0 61 be 6c 52 c8 3d
       0.14967506 -0.19016056 -0.22033995 0.09781346
000140 a0 c3 af 3d 2a b8 51 be 6d 98 3f be 5a f8 b4 be
       0.085822344 -0.2048041 -0.1871049 -0.35345727
000150 85 5e a2 3d b3 ff 76 be ea 6a 8a bd 7a 6f 0c be
       0.079281844 -0.24120979 -0.067586735 -0.137144
000160 92 ae 0b be 85 04 cf be 20 e2 76 bd 67 ee 25 bd
       -0.13640812 -0.40433136 -0.060274243 -0.04051056
000170 46 02 4c be 56 4a 4e bc 95 8e e6 be 08 08 87 be
       -0.19922742 -0.012590965 -0.45030656 -0.26373315
000180 87 dd e5 be 04 c4 1a be e5 d0 44 be 0d 83 e9 be
       -0.44895574 -0.15113837 -0.19220312 -0.45607796
000190 e6 b0 f3 bc 44 d7 7d 3e b5 05 77 3e 8a 68 23 be
       -0.029747438 0.24789149 0.24123271 -0.15957847
0001a0 0c 54 99 3c 96 70 1b 3f 65 a6 39 bd 6c 86 d2 bd
       0.018716834 0.6071867 -0.0453247 -0.10279545
0001b0 63 4b 01 3f 74 fe 97 3e 41 a3 15 be fe 6b a9 3e
       0.50505656 0.2968632 -0.14613058 0.33090204
0001c0 47 d4 91 3e 8b 7d 9e be 69 31 29 3e 7f 23 4b 3e
       0.28482267 -0.30955157 0.16522755 0.1983776
0001d0 1b 1f 11 3f 71 23 3f be 26 a4 d0 3e d3 9c dc 3e
       0.5668809 -0.18665864 0.40750235 0.43088397
0001e0 10 d5 eb be f1 25 ac be 5c a2 f1 bc 18 a4 da be
       -0.4606099 -0.33622697 -0.029496364 -0.4270332
0001f0 6c 69 b4 bd 53 cd dd be a0 31 55 3e 3e 8d 4f be
       -0.0880917 -0.43320712 0.20819712 -0.20268723
000200 f2 20 eb bd ad 9a 1f be a0 2c ed bd 30 f7 bf bd
       -0.11480893 -0.15586348 -0.11580777 -0.09373319
000210 66 0e 90 be 4c 27 80 3d b9 88 5a be e9 9e fe be
       -0.28135985 0.06257495 -0.21341218 -0.49730614
000220 a9 9c a7 be 19 b7 aa bd 6d 2f dc be 35 d1 bc be
       -0.3273671 -0.08335704 -0.43004933 -0.36878362
000230 57 4e bc 3e b3 fa 8c 3d 61 9a 95 3d 56 59 fd 3c
       0.3677852 0.068837546 0.07304836 0.030926388
000240 e4 a8 2f 3e 4f 2c f7 3d b2 c4 2a bd 65 29 f5 bd
       0.1715427 0.12068998 -0.04169149 -0.11970786
000250 44 c4 8d 3c 3b 83 12 be fa eb 6e 3c f5 bb 71 3d
       0.0173055 -0.14307873 0.014582628 0.05901714
000260 39 b8 8e bd e7 5a d6 3f 73 7b ab 3d f4 07 a5 3d
       -0.069687314 1.6746491 0.083731554 0.080581576
000270 78 f5 10 3e 5a 7e 68 be 0c f8 ae bd 97 40 49 3d
       0.14156139 -0.2270445 -0.08543405 0.049133863
000280 90 a9 ce 3e 94 07 81 3d 7b 8b bb bb 6c 06 93 be
       0.4036374 0.063002735 -0.0057234145 -0.28715837
000290 36 4a f8 3d cf f3 53 3d 64 64 42 3d 49 b0 87 bb
       0.121235296 0.051746186 0.04745902 -0.004140888
0002a0 1a 3a 88 3e 88 97 f5 3d da 56 a0 be 64 ce 1a be
       0.26606828 0.11991793 -0.31316262 -0.15117794
0002b0 db 47 0a 3e 29 a1 1d 3e 5a ba d6 3d 71 b8 19 3e
       0.13503973 0.15393509 0.104847625 0.15011765
0002c0 e0 12 a7 3e dc 09 7b 3c 59 17 12 3e b7 1b 3d 3e
       0.32631588 0.015322175 0.14266719 0.18467604
0002d0 f0 b5 cd 3e b0 55 5b bc fd 12 bb be f0 bf 2e be
       0.4017787 -0.013387129 -0.36537924 -0.17065406
0002e0 45 50 a1 3e a3 a2 11 3b 7a 69 17 be bc 2c ac be
       0.31506553 0.0022222183 -0.1478633 -0.3362788
0002f0 c9 8d 5b bc 36 ab ee bd b5 40 6e be fa dc aa be
       -0.013400503 -0.1165375 -0.23266871 -0.33371717
000300 f6 42 af 3c 7c 46 eb be 88 f5 02 bd 2a f4 55 be
       0.021394234 -0.45952213 -0.031972438 -0.20893922
000310 10 9a 38 be d6 8f 6b be 86 0c bf 3b a9 72 55 bd
       -0.1802752 -0.23004088 0.0058303503 -0.0521113
000320 86 d5 b8 3e 45 0a 06 3e 8c 59 b6 3d 84 9d a0 bd
       0.36100405 0.13089855 0.089037985 -0.07842544
000330 12 0c c0 3e 0d 01 20 3d b2 1a 38 3e 86 24 16 be
       0.3750921 0.039063502 0.17978933 -0.1466237
000340 86 41 89 be 10 c6 64 bd 4e 9e ce be fa 8d fc 3c
       -0.26807803 -0.05585295 -0.40355152 0.030829418
000350 3e 97 d1 be fb 16 df bf 6e cc ad be a3 68 d6 bd
       -0.409357 -1.7428888 -0.3394503 -0.104691766
000360 d7 ee 07 3e 49 33 12 be e9 2f bd bd 48 c1 89 be
       0.13274704 -0.14277376 -0.09237654 -0.26905274
000370 db 01 64 be 9b 7c 9c be a5 75 64 3d 19 c4 b4 3b
       -0.22266333 -0.30563816 0.055776257 0.0055165407
000380 c3 04 ad bc 09 ec 64 be 3f e4 5e be 35 a9 02 3e
       -0.021120435 -0.22355665 -0.21766756 0.1275986
000390 f6 bd b1 be 13 17 14 be f1 7f 3d bb 4e 35 50 be
       -0.3471524 -0.14461927 -0.002891537 -0.20332834
0003a0 2d 18 e6 be 21 4d a2 be 6c 17 59 be b8 01 38 be
       -0.4494032 -0.3169947 -0.21200341 -0.17969406
0003b0 89 dc bb be 46 48 38 be 10 6a 07 3e bd ed e0 be
       -0.36691692 -0.1799632 0.13224053 -0.4393138
0003c0 f8 99 9b 3e d3 3c 5c be 92 ad 64 be 9c e2 29 be
       0.30390906 -0.21507578 -0.22331837 -0.16590351
0003d0 a0 b3 54 3e af 24 b0 3d 31 a1 4e 3e d3 aa 89 3d
       0.20771646 0.08600747 0.20178677 0.06722035
0003e0 e5 00 f1 bc a5 91 b5 3c 76 5f 8e 3d da 84 5a be
       -0.029419372 0.022164175 0.069518015 -0.21339741
0003f0 0e 65 fe bd ea c7 1a bf 83 91 f0 3c f2 1d 63 bd
       -0.124216184 -0.60461295 0.02936626 -0.05544848

fc1.bias f4 [25]
000000 2f 9c 37 40 a2 f7 01 be 0a cc 95 be f1 b1 86 bf
       2.8689077 -0.1269212 -0.29257232 -1.0523053
000010 66 92 9b be 4c b5 77 be 7d 0d db be 13 85 ff be
       -0.3038513 -0.24190253 -0.42783728 -0.49906215
000020 fe 53 08 be 46 0d 90 be 05 14 09 3f eb bc f3 be
       -0.1331329 -0.28135127 0.5354617 -0.4760507
000030 b0 bc ad bd b0 f0 01 bf 66 0d 8b be d5 5c 61 be
       -0.08483255 -0.50757885 -0.2715866 -0.22008069
000040 9b 68 d7 be 49 78 35 be 70 63 95 bd 8b d4 df be
       -0.42071995 -0.17721666 -0.07294357 -0.43716845
000050 92 ad 80 be b2 8c 87 3e 6a af ef be 49 cd 8d be
       -0.25132424 0.2647453 -0.46813518 -0.27695683
000060 c5 b4 98 bc
       -0.018640885

fc2.weight f4 [27, 25]
000000 c2 91 0b bf 97 ae e5 3e bb c8 10 3e 07 f2 95 bd
       -0.54519284 0.44859764 0.14139073 -0.07321554
000010 8a e7 a7 3d 23 c0 86 3e 13 fb f1 bd 3c 16 3e bd
       0.081984594 0.26318464 -0.11815467 -0.046407923
000020 68 d2 15 3e 76 15 9d be df 3b 94 be 20 19 f0 3d
       0.14631045 -0.30680436 -0.28951928 0.11723542
000030 95 a2 8a bc 32 a2 32 3e 74 4f a5 3e b8 47 44 bd
       -0.016923228 0.17444685 0.3228718 -0.04791996
000040 a4 dd 74 3e df 3c 13 3e f6 be eb bd 4d 39 04 3e
       0.23912674 0.14378689 -0.11511032 0.12912484
000050 dd 2f 05 be 84 cc cf bd 2d 46 57 be ca 2c a4 be
       -0.1300654 -0.1014643 -0.21022864 -0.3206542
000060 6f 6d 0d be d2 ae b7 be 6d 3c 47 be 4a 6a e2 3d
       -0.13811277 -0.35875565 -0.19456644 0.11055429
000070 36 ad 66 be 60 7f f1 3d b0 8e cb bd b7 68 b1 be
       -0.22527012 0.11791873 -0.09939325 -0.34650204
000080 b4 f4 32 bd 96 f5 df bc fb cb aa be 22 83 ae be
       -0.0436904 -0.027338784 -0.3335875 -0.3408442
000090 2d 39 f6 3d d5 0d 93 be 0b 17 2f be 9b 5a 10 be
       0.12022624 -0.2872149 -0.17098634 -0.14097063
0000a0 cf 7c 43 be df e3 0c 3e ef d3 01 be 06 68 29 be
       -0.1909058 0.13758801 -0.12678503 -0.16543588
0000b0 d5 65 cd be ea 66 39 bd 6e 1b a2 be 68 29 c0 be
       -0.40116754 -0.045264162 -0.31661552 -0.3753159
0000c0 75 d5 96 bc 43 66 86 bd b7 01 87 be 7f 5a df 3d
       -0.018412331 -0.065624736 -0.26368496 0.10905933
0000d0 ef 34 51 3e 17 5b a5 3d d5 b4 b4 3d 85 15 d5 3e
       0.20430349 0.08074015 0.088235535 0.4161798
0000e0 a6 33 65 3e 84 cd 39 bd 18 89 af bb dd d8 ce bc
       0.22382984 -0.04536201 -0.005356919 -0.025249893
0000f0 bd 3b 71 bd cf da 6c 3e 11 7c e5 bd 83 e9 b3 3d
       -0.05889486 0.23130344 -0.112053044 0.08784773
000100 fd 01 b2 3e 17 80 42 be f0 5e 54 3e 27 46 67 3e
       0.34767142 -0.18994175 0.20739341 0.22585355
000110 13 43 2b 3d fa 7d f0 3d 04 28 36 3d ed 55 df 3c
       0.041812014 0.11742778 0.044471756 0.027262652
000120 8e 1a 2b bd 33 ed 74 3c c6 84 8c 3d 5b 1e 3a be
       -0.04177337 0.014949131 0.06861262 -0.18175642
000130 c7 4c 82 bd 1d 10 21 3e 96 68 7a be da 2b 39 bd
       -0.063623 0.15728803 -0.24453959 -0.045207836
000140 50 01 f5 bd fa 0a 34 bd 38 d7 b9 be 8a e9 1d be
       -0.11963141 -0.04395578 -0.3629701 -0.1542112
000150 18 36 b3 bc c5 55 79 bc 83 cf 41 be 89 8e 94 be
       -0.02187638 -0.015218203 -0.18926816 -0.29014996
000160 c2 f3 2c be b7 71 f8 bd 98 09 ef bd 7a 57 9d 3d
       -0.16889861 -0.121310644 -0.11671752 0.076827005
000170 12 60 2f be 42 06 9f be cd 96 31 3d d8 29 71 be
       -0.17126492 -0.31059462 0.043356705 -0.23551118
000180 a2 0d c2 bb 30 b1 7f be d2 c9 19 be e4 79 82 bd
       -0.0059220353 -0.24969935 -0.15018395 -0.06370905
000190 21 c0 78 be 99 7d 5c 3e 29 9f 66 3e 3a 0e 3c be
       -0.24292041 0.21532287 0.22521652 -0.18364802
0001a0 7e c1 82 3e fe f2 ce 3e c8 90 13 3e 89 ca 07 3e
       0.25538248 0.40419763 0.14410698 0.13260855
0001b0 27 9d 00 3e 33 88 82 be 37 fc a1 bd 61 b7 d8 3e
       0.12559949 -0.25494537 -0.07909434 0.42327407
0001c0 7d 82 f4 ba 0b b1 de 3d 24 b7 56 3e 90 66 8e bd
       -0.0018654611 0.10873612 0.209683 -0.06953156
0001d0 f5 cd 16 3e c7 cc b4 3e 8a e1 ef 3d 73 a1 b0 3e
       0.14727004 0.35312483 0.1171294 0.34498176
0001e0 9b 69 85 3d c4 ba 78 be 53 9b 45 bc 58 92 21 3d
       0.06514283 -0.24289995 -0.012060958 0.039446205
0001f0 a9 7f 54 be 7a 3b ce be 5e 0d d9 bd d4 b1 d5 3e
       -0.20751823 -0.40279752 -0.10598253 0.41737235
000200 79 a9 8d be 4d d4 77 3c 8f 92 d7 bf e3 55 d5 3e
       -0.2766836 0.0151263 -1.6841601 0.4166709
000210 35 df 1b bd 3e 8f cc bd ca 75 84 bc 18 ad ed 3d
       -0.038054664 -0.09988259 -0.016169447 0.11605281
000220 32 d1 31 be 9f 85 1a be ac a2 9e 3e b3 ed 14 be
       -0.17364958 -0.15090035 0.30983484 -0.145438
000230 4b eb 83 be da c5 8b bd e2 e9 e7 3e 21 4c c9 be
       -0.25765452 -0.068248466 0.45295626 -0.39315894
000240 e7 71 e3 3e 0e 9f 99 bd 61 cd 29 be 8a 9a 3d 3c
       0.44422838 -0.075010404 -0.16582252 0.0115724895
000250 3d aa 48 be 79 99 2d be 5b b4 5a be fe 1c 52 3e
       -0.19596191 -0.16953076 -0.21357863 0.20518872
000260 1a 6e a5 3e 62 30 4f 3e a7 12 7d 3e 43 c7 a8 3e
       0.32310563 0.202333 0.24714147 0.32964525
000270 49 23 52 3e d7 74 4b bd 21 e4 19 be f2 30 82 3d
       0.20521273 -0.049671974 -0.1502843 0.06356992
000280 4e e2 8d be 45 5a 97 3e e0 75 87 3c c3 a1 14 be
       -0.2771172 0.29561058 0.0165357 -0.14514832
000290 46 62 ee 3d a7 b2 2c be c9 85 b1 3d fd f9 04 3e
       0.11639838 -0.16865025 0.086680956 0.12985988
0002a0 94 bb 07 3d 71 8a 19 3e fd 97 50 3c 72 b0 b1 bd
       0.033137873 0.14994217 0.012731549 -0.086762324
0002b0 89 98 82 bd 7a 85 b7 be d0 16 37 3d 32 b0 97 be
       -0.0637675 -0.35844022 0.04469949 -0.29626614
0002c0 b3 25 13 3d a2 6e 14 be 19 d4 fe be ba cf e1 bd
       0.035924625 -0.14495328 -0.49771193 -0.11025949
0002d0 2f 13 6d be 9d d6 8f bd 19 87 2a be d7 fe da be
       -0.23151849 -0.07023356 -0.16653098 -0.42772552
0002e0 71 ea 49 be db ab b9 be b0 8c 0c be fc 17 77 be
       -0.19718339 -0.36263928 -0.13725543 -0.24130243
0002f0 47 bd 1b 3d aa 99 45 be cd 3f c3 be 6f f1 48 be
       0.038022306 -0.192969 -0.38134614 -0.1962335
000300 83 d7 96 bd 57 1c 82 bd 9b 2b 44 3e 37 09 81 be
       -0.07365324 -0.06353062 0.19157259 -0.25202343
000310 1f 42 15 be fc a9 aa be 90 6a 4f be 9b a9 47 be
       -0.14576004 -0.33332813 -0.20255494 -0.19498293
000320 e2 46 37 bf 63 20 fb be f3 ee 98 be 3e 7c e3 c0
       -0.71592534 -0.49048147 -0.29869804 -7.1089163
000330 07 b9 2c be b5 85 5a c0 c2 d8 35 be 3f 94 4c bf
       -0.16867457 -3.4144108 -0.17758468 -0.79913706
000340 4b 1c 76 c0 03 1c 85 3e d5 e7 a4 3f a8 2c 0b be
       -3.8454769 0.25997934 1.288325 -0.13591254
000350 be 0c ca be 50 e9 8e 3d 40 1b 72 be bf be 22 be
       -0.39462847 0.069780946 -0.23643208 -0.15893076
000360 27 ff 8c 3c 63 78 c0 be 26 69 65 bd fe 2a d9 bd
       0.01721151 -0.37591848 -0.05600848 -0.10603903
000370 1f cf ce bf 59 72 9c 40 44 17 c3 be 28 89 eb 3e
       -1.6156958 4.8889585 -0.38103688 0.4600308
000380 0a 99 af be f7 2e 19 be 41 9d c3 be 86 16 4c be
       -0.34296447 -0.14959322 -0.38205913 -0.19930467
000390 3b 30 cb be e7 b3 f6 bd 68 dc 97 be 3d a8 95 be
       -0.39685234 -0.120460324 -0.29660344 -0.29229918
0003a0 4d fd 23 bf 36 f9 4e bf c4 29 34 3d b3 77 f2 bc
       -0.6405838 -0.80849016 0.043985143 -0.029598093
0003b0 13 52 24 be f4 40 74 be d1 3d e6 be ad 7b 4f be
       -0.16046934 -0.23852903 -0.44969037 -0.20262022
0003c0 2e aa 00 be cd 93 08 3e 5e 1b 10 be 16 63 1f be
       -0.12564918 0.13337632 -0.1407294 -0.15565142
0003d0 cb 9f b6 be 81 6c 4d bf 11 ec b9 3c e8 1c 8e be
       -0.35668787 -0.8024369 0.022695573 -0.2775643
0003e0 86 c1 d0 3e bb c5 38 be fd b0 23 be 1d b4 40 be
       0.40772647 -0.18044178 -0.15985484 -0.18818708
0003f0 33 12 c0 bb 1f 51 41 bd e0 d8 2a bd f1 8b a8 be
       -0.0058615445 -0.047196504 -0.041710734 -0.32919267

fc2.bias f4 [27]
000000 42 77 5d 40 a9 d4 95 be 65 92 45 40 27 a3 39 be
       3.460404 -0.2926381 3.0870602 -0.18128644
000010 51 84 54 40 c0 a1 ea 3e bf 76 59 40 d2 4a 0d bf
       3.320576 0.4582653 3.3978727 -0.5519229
000020 ce 50 41 40 e6 6c c2 be 42 35 92 be 92 9f 4d 40
       3.020557 -0.37973708 -0.28556257 3.2128644
000030 20 89 5d 40 3b b1 88 be 2c 3b 45 40 e2 d5 4b bf
       3.4614944 -0.26697716 3.0817366 -0.79623234
000040 2d 3e a4 be 20 5e ce be 04 56 41 40 7f b2 75 be
       -0.32078686 -0.40306187 3.020875 -0.23993872
000050 dc 39 51 40 24 52 a5 be 78 63 f7 bd c2 20 98 be
       3.2691565 -0.3228923 -0.12079519 -0.29712492
000060 b9 cb 6a bd 9b 59 01 bf 0a 8f 08 bf
       -0.05732319 -0.5052735 -0.5334326

fc3.weight f4 [27, 27]
000000 17 cd 9b 3c d1 78 9e bc fc c1 7d bd b0 95 2d be
       0.019018693 -0.01934472 -0.061952576 -0.16951632
000010 59 fe a1 bd f4 cf d1 3c b2 69 f2 3c 2b 07 1d bc
       -0.07909841 0.025611855 0.029591415 -0.0095842285
000020 12 22 30 be 8a f2 b5 3d ef 5a 81 3c 85 cd 29 be
       -0.17200497 0.08884151 0.01579043 -0.16582306
000030 5b 01 ed 3d a2 4f 26 be 59 a0 9a bd 16 36 bb 3c
       0.11572524 -0.16241315 -0.07550115 0.022852939
000040 18 d6 6b bd b8 69 3d 3e ce 0c c2 bc 8c 3d 30 3e
       -0.057577223 0.1849736 -0.023687746 0.17210978
000050 49 ec 13 3d 4e e7 b3 bd 18 25 a8 bd 4d 01 32 be
       0.03611401 -0.08784352 -0.082102 -0.17383309
000060 b2 f1 42 3e 7f 1d 8a bd f2 c3 e9 bd 8b ce 39 3d
       0.19037512 -0.06743907 -0.11414327 0.04536299
000070 f8 7b 87 3d e2 41 e1 be f2 d5 42 be 6d b4 cb be
       0.06615442 -0.43995577 -0.19026926 -0.3978609
000080 a8 e8 10 be 70 df 61 be 1a de 1f bd 3c 4b 1f be
       -0.14151251 -0.22057891 -0.039030172 -0.15556043
000090 7a 8d e2 bd df ba c3 bd 58 91 9b be ae 47 dd be
       -0.11062141 -0.09557127 -0.30384326 -0.4321875
0000a0 2d 40 d0 bd 72 8b 0c 3e 24 d1 c9 3d f6 53 2c 3d
       -0.101684906 0.13725069 0.098543435 0.04207226
0000b0 27 00 e5 be 7f 8e 1b be 52 06 35 3e 67 3f b3 be
       -0.4472668 -0.15191077 0.17678192 -0.3500931
0000c0 84 94 26 be 91 d9 c3 bd a6 85 83 bd 94 89 5c be
       -0.16267592 -0.09562982 -0.06421976 -0.21536857
0000d0 43 01 02 bd 5e f1 d9 be f6 5c b4 3c 74 41 4a be
       -0.031739485 -0.4256696 0.022016983 -0.19751531
0000e0 99 37 cd 3d f3 b3 5a be 03 e8 d8 3c 7f df 3f 3d
       0.1002037 -0.21357708 0.02647782 0.046844
0000f0 c3 18 02 bd ee 54 bc be 2a 30 a3 bd a9 57 a9 3e
       -0.031761896 -0.36783546 -0.07968171 0.33074692
000100 25 79 44 be 88 8b f9 bd 1a 3e de 3d ca 75 55 be
       -0.19186838 -0.121848166 0.10851689 -0.20845714
000110 73 9f d1 3b 7d 20 4d be d6 65 59 3e 72 f6 4d 3e
       0.0063971817 -0.20031925 0.21230254 0.20113543
000120 04 27 6b 3d fe 44 1a bd 59 98 f8 3d 31 05 e3 3e
       0.057410255 -0.037663452 0.12138433 0.44339898
000130 31 90 3d be bd 1f 96 be ed 0a 7d bd ea 67 af 3b
       -0.18512036 -0.2932109 -0.061777998 0.0053529637
000140 08 d8 08 be cf 19 8a be e8 af 73 be 3d 2c 5c be
       -0.1336366 -0.26972815 -0.23797572 -0.2150125
000150 c5 3d 0d be ff 34 33 3d 7d 1e 2c be 94 ab 7b 3d
       -0.13793094 0.043751713 -0.16808505 0.061442927
000160 a4 be 6d be ee ba 62 3e 4b c0 0c 3e af c8 93 be
       -0.23217255 0.2214162 0.13745229 -0.28864047
000170 f9 73 49 bd d8 c3 52 be 94 75 07 be 13 99 92 bd
       -0.049182866 -0.20582521 -0.13228446 -0.07158103
000180 41 f9 72 3e 10 ce e2 3e 4d bf df 3e 2d 08 ae bd
       0.23727895 0.44297838 0.43700638 -0.08497653
000190 5f 01 e3 bd 22 7d b8 b8 1a 61 91 3e 39 ec f5 bd
       -0.11084246 -8.7971115e-05 0.28394395 -0.120079465
0001a0 ad 70 2f bc bd 1a 48 be b9 89 8d be 1f 2e 91 3e
       -0.010708016 -0.1954145 -0.27644137 0.283555
0001b0 1e b7 33 3e 5e 4c 1d bd cf a2 9f 3d 41 39 43 bd
       0.17550322 -0.038402908 0.07794725 -0.047662023
0001c0 e2 c0 b8 bd 1e 29 f3 bd 16 67 3a 3e 73 f6 69 be
       -0.090211645 -0.11873077 0.18203387 -0.22847919
0001d0 b9 ce e1 bf 0c 20 97 3e 45 eb 73 bd 1b 37 06 3d
       -1.7641212 0.29516637 -0.059550542 0.032767396
0001e0 88 4c 97 3d 12 25 06 be 5f 2b f3 bd a6 d1 aa 3e
       0.07387644 -0.13100079 -0.11873507 0.33363074
0001f0 0c ff c1 3e d7 89 1b 3e 4c 54 19 be c6 c6 f1 bd
       0.37889898 0.151893 -0.14973563 -0.11805491
000200 88 28 ff 3d 95 82 3a 3e 5a 74 7f be 76 2a 06 be
       0.124589026 0.18213876 -0.24946728 -0.13102135
000210 53 ce 7a 3d 04 4d bb bd 9b be 80 3e db fe f8 be
       0.061231922 -0.09145549 0.2514542 -0.4863194
000220 60 57 1c be 08 74 be be 80 a1 ad 3d ed 8b 89 be
       -0.15267706 -0.371979 0.08478069 -0.26864567
000230 24 01 9e be 04 50 e3 bd d3 2d 0b 3b 21 2f e9 bd
       -0.30860245 -0.11099246 0.002123703 -0.11385942
000240 ae 36 e0 be 28 75 11 3e 7f 43 9d be f8 35 26 be
       -0.43791717 0.14204848 -0.30715558 -0.16231525
000250 de 8b 01 be e2 68 ce be 8d eb 47 bd 85 b8 86 be
       -0.12651011 -0.40314394 -0.048808623 -0.26312652
000260 73 db d1 be da d9 9c be b5 0b 35 be 31 5a b5 be
       -0.4098774 -0.30634958 -0.17680247 -0.35420373
000270 25 a2 99 be 5b 34 a2 bd ff 7b f2 be 5d 64 4e be
       -0.3000652 -0.07920142 -0.47360227 -0.20155473
000280 f5 0f 8c be bf f4 b5 be 06 85 2a 3e d7 7b 02 be
       -0.27355924 -0.3553829 0.16652307 -0.12742554
000290 4d cd aa bd 80 d3 ae be 73 32 0f 3e 14 60 12 bd
       -0.08339939 -0.34145737 0.13984089 -0.03573616
0002a0 ac 80 21 3e 1c 0b 59 be 96 d2 0e c0 9a 6c 30 3e
       0.1577174 -0.21195644 -2.2316031 0.17228928
0002b0 95 6a aa be 6d dd 80 3d ab 39 e2 3b 8d 32 d3 3c
       -0.3328444 0.062922336 0.006903847 0.02578094
0002c0 33 9a f2 3a 09 3c 91 be 86 dc 24 3e a5 29 8a 3e
       0.001850909 -0.28366116 0.16099748 0.26984897
0002d0 0b 3b ad 3d fb c1 94 be 81 70 12 3e 5b e5 b5 3e
       0.08458527 -0.29054245 0.1430073 0.35526547
0002e0 40 48 3c be 3c ad 93 be e8 ec ec bd 94 2a 8b be
       -0.18386936 -0.28843105 -0.11568624 -0.27180922
0002f0 b8 d8 9d be 8a f9 23 be a1 63 10 3d f3 ea 9d 3c
       -0.30829406 -0.1601316 0.035251264 0.019277072
000300 12 51 79 be 8d fe 83 be 01 34 bd bb aa 99 07 be
       -0.24347332 -0.25780144 -0.0057740216 -0.13242212
000310 ca c8 80 be f7 21 ef be f2 11 08 3f 7f 92 a1 bb
       -0.2515319 -0.467056 0.5315238 -0.004930794
000320 50 31 48 3d 74 82 a4 bd ac fe a3 be c8 73 4a 3d
       0.048875153 -0.080326945 -0.32030237 0.049426824
000330 b7 54 91 3e cf 54 8e 3e d4 60 80 3e 85 e3 16 bd
       0.28384945 0.2779908 0.25073874 -0.036838073
000340 e4 16 2c be 4b 37 e1 3c 5f 11 e7 3d 83 df 8f be
       -0.16805607 0.027492186 0.1128261 -0.28100213
000350 d8 9c de bd 11 79 86 3b df 90 89 be c5 3d 77 3e
       -0.10869759 0.0041037877 -0.2686834 0.24144657
000360 60 fb a1 be f1 c0 99 bd 50 55 9e be 6a a9 6e be
       -0.31637096 -0.07507504 -0.30924463 -0.23306814
000370 12 cf 86 be c3 df 81 be c7 87 0b be 7f 37 d2 bd
       -0.26329857 -0.2536603 -0.13626014 -0.10264491
000380 88 d2 ac 3d 18 c2 18 be b6 c6 27 be bf e8 42 be
       0.08438593 -0.14917791 -0.16384396 -0.19034098
000390 21 6f 9e be 4c 12 c6 be ff d8 81 be bd 1a be 3e
       -0.3094416 -0.38685834 -0.25360867 0.37129775
0003a0 16 8f 3e be d9 ce b1 3d 34 15 90 be 64 2f 39 be
       -0.1860927 0.08682031 -0.28141177 -0.18084484
0003b0 4a ce 5c be 77 2a 29 3d 65 d0 2d be bb 07 d9 bd
       -0.21563068 0.041300263 -0.16974027 -0.105971776
0003c0 f2 d9 32 be 65 f7 12 be 28 9e 1f 3b 37 c8 ed 3d
       -0.17465952 -0.14352186 0.0024355743 0.116104536
0003d0 ad 9c e8 bb dc c3 3f be 1a f6 04 be da 18 c3 3d
       -0.0070987553 -0.18727058 -0.12984505 0.095262244
0003e0 7b 8f db bd 67 14 dc bd ec 8d 09 3e 58 2d 12 bd
       -0.10720726 -0.10746079 0.13433045 -0.035687774
0003f0 0e c4 9b 3d d8 a9 19 be 6d 68 68 bc f0 ab 05 3b
       0.07605754 -0.15006196 -0.014185053 0.0020396672

fc3.bias f4 [27]
000000 1d cd a4 bd 09 e1 a7 be 33 58 d3 3f fc 28 01 3f
       -0.08046935 -0.32788876 1.6511291 0.5045316
000010 fa 97 f2 3f 0e a7 64 be 33 e7 e9 3f 8a 87 d9 3e
       1.895263 -0.22329351 1.8273681 0.4248622
000020 1f 6d 94 be 5d 5f 03 be df c3 4d 3f e4 cd 17 be
       -0.28989503 -0.12829347 0.80377 -0.14824635
000030 b3 dc e0 3f ee 62 2e be 96 02 dd 3f 14 5e 5d 3e
       1.7567352 -0.17029926 1.7266414 0.21617919
000040 43 aa 01 bf e0 f8 98 3e cc d3 f4 3f b1 fc a9 be
       -0.50650424 0.29877377 1.9127135 -0.332006
000050 6a 02 0f 3f bb d1 e2 bd 7e 8b 5e 3f 90 09 a3 be
       0.5586306 -0.11075159 0.869316 -0.31843233
000060 1f 00 dc bd 79 2e 99 be f2 59 3f 40
       -0.107422106 -0.29918268 2.9898648

fc4.weight f4 [1, 27]
000000 e5 12 b8 3e 02 2f 64 be 66 b6 0b 3e 4d a9 14 bd
       0.35951915 -0.22283557 0.13643798 -0.03629427
000010 f4 64 46 3e 23 06 d6 bd 71 5f 45 3e 02 08 0f bd
       0.19374448 -0.10450389 0.1927469 -0.034919746
000020 3d ea 61 be a4 b5 b9 bc 98 2b 39 bb 72 f4 89 3e
       -0.22062011 -0.02266962 -0.0028254744 0.2694431
000030 30 d2 03 3e c1 03 56 be 40 f2 49 3e 61 05 94 bd
       0.12873149 -0.2089987 0.19721317 -0.072275884
000040 eb b1 36 3e 17 6f 91 bd 6c 94 2e 3e c1 c2 8b be
       0.17841308 -0.07101267 0.17048806 -0.27297023
000050 f4 82 94 3c 0f 0b 69 3e 2b 2a 42 3c 3b 90 20 be
       0.01812885 0.22758125 0.011850874 -0.1568002
000060 de d6 0f be 38 8b 23 be 00 4a d5 3f
       -0.14046809 -0.15971076 1.6663208
